…
I0826 11:57:19.808703 62202 solver.cpp:70] Creating training net from net file: ./models/VGG16_caltech/rpn_prototxts/vgg_16layers_conv3_1/train_val.prototxt
I0826 11:57:19.809602 62202 net.cpp:42] Initializing net from parameters: 
name: "VGG_ILSVRC_16"
input: "data"
input: "labels"
input: "labels_weights"
input: "bbox_targets"
input: "bbox_loss_weights"
input_dim: 1
input_dim: 3
input_dim: 224
input_dim: 224
input_dim: 1
input_dim: 9
input_dim: 14
input_dim: 14
input_dim: 1
input_dim: 9
input_dim: 14
input_dim: 14
input_dim: 1
input_dim: 36
input_dim: 14
input_dim: 14
input_dim: 1
input_dim: 36
input_dim: 14
input_dim: 14
state {
  phase: TRAIN
}
layer {
  name: "conv1_1"
  type: "Convolution"
  bottom: "data"
  top: "conv1_1"
  param {
    lr_mult: 0
  }
  param {
    lr_mult: 0
  }
  convolution_param {
    num_output: 64
    pad: 1
    kernel_size: 3
  }
}
layer {
  name: "relu1_1"
  type: "ReLU"
  bottom: "conv1_1"
  top: "conv1_1"
}
layer {
  name: "conv1_2"
  type: "Convolution"
  bottom: "conv1_1"
  top: "conv1_2"
  param {
    lr_mult: 0
  }
  param {
    lr_mult: 0
  }
  convolution_param {
    num_output: 64
    pad: 1
    kernel_size: 3
  }
}
layer {
  name: "relu1_2"
  type: "ReLU"
  bottom: "conv1_2"
  top: "conv1_2"
}
layer {
  name: "pool1"
  type: "Pooling"
  bottom: "conv1_2"
  top: "pool1"
  pooling_param {
    pool: MAX
    kernel_size: 2
    stride: 2
  }
}
layer {
  name: "conv2_1"
  type: "Convolution"
  bottom: "pool1"
  top: "conv2_1"
  param {
    lr_mult: 0
  }
  param {
    lr_mult: 0
  }
  convolution_param {
    num_output: 128
    pad: 1
    kernel_size: 3
  }
}
layer {
  name: "relu2_1"
  type: "ReLU"
  bottom: "conv2_1"
  top: "conv2_1"
}
layer {
  name: "conv2_2"
  type: "Convolution"
  bottom: "conv2_1"
  top: "conv2_2"
  param {
    lr_mult: 0
  }
  param {
    lr_mult: 0
  }
  convolution_param {
    num_output: 128
    pad: 1
    kernel_size: 3
  }
}
layer {
  name: "relu2_2"
  type: "ReLU"
  bottom: "conv2_2"
  top: "conv2_2"
}
layer {
  name: "pool2"
  type: "Pooling"
  bottom: "conv2_2"
  top: "pool2"
  pooling_param {
    pool: MAX
    kernel_size: 2
    stride: 2
  }
}
layer {
  name: "conv3_1"
  type: "Convolution"
  bottom: "pool2"
  top: "conv3_1"
  param {
    lr_mult: 1
  }
  param {
    lr_mult: 2
  }
  convolution_param {
    num_output: 256
    pad: 1
    kernel_size: 3
  }
}
layer {
  name: "relu3_1"
  type: "ReLU"
  bottom: "conv3_1"
  top: "conv3_1"
}
layer {
  name: "conv3_2"
  type: "Convolution"
  bottom: "conv3_1"
  top: "conv3_2"
  param {
    lr_mult: 1
  }
  param {
    lr_mult: 2
  }
  convolution_param {
    num_output: 256
    pad: 1
    kernel_size: 3
  }
}
layer {
  name: "relu3_2"
  type: "ReLU"
  bottom: "conv3_2"
  top: "conv3_2"
}
layer {
  name: "conv3_3"
  type: "Convolution"
  bottom: "conv3_2"
  top: "conv3_3"
  param {
    lr_mult: 1
  }
  param {
    lr_mult: 2
  }
  convolution_param {
    num_output: 256
    pad: 1
    kernel_size: 3
  }
}
layer {
  name: "relu3_3"
  type: "ReLU"
  bottom: "conv3_3"
  top: "conv3_3"
}
layer {
  name: "pool3"
  type: "Pooling"
  bottom: "conv3_3"
  top: "pool3"
  pooling_param {
    pool: MAX
    kernel_size: 2
    stride: 2
  }
}
layer {
  name: "conv4_1"
  type: "Convolution"
  bottom: "pool3"
  top: "conv4_1"
  param {
    lr_mult: 1
  }
  param {
    lr_mult: 2
  }
  convolution_param {
    num_output: 512
    pad: 1
    kernel_size: 3
  }
}
layer {
  name: "relu4_1"
  type: "ReLU"
  bottom: "conv4_1"
  top: "conv4_1"
}
layer {
  name: "conv4_2"
  type: "Convolution"
  bottom: "conv4_1"
  top: "conv4_2"
  param {
    lr_mult: 1
  }
  param {
    lr_mult: 2
  }
  convolution_param {
    num_output: 512
    pad: 1
    kernel_size: 3
  }
}
layer {
  name: "relu4_2"
  type: "ReLU"
  bottom: "conv4_2"
  top: "conv4_2"
}
layer {
  name: "conv4_3"
  type: "Convolution"
  bottom: "conv4_2"
  top: "conv4_3"
  param {
    lr_mult: 1
  }
  param {
    lr_mult: 2
  }
  convolution_param {
    num_output: 512
    pad: 1
    kernel_size: 3
  }
}
layer {
  name: "relu4_3"
  type: "ReLU"
  bottom: "conv4_3"
  top: "conv4_3"
}
layer {
  name: "pool4"
  type: "Pooling"
  bottom: "conv4_3"
  top: "pool4"
  pooling_param {
    pool: MAX
    kernel_size: 2
    stride: 2
  }
}
layer {
  name: "conv5_1"
  type: "Convolution"
  bottom: "pool4"
  top: "conv5_1"
  param {
    lr_mult: 1
  }
  param {
    lr_mult: 2
  }
  convolution_param {
    num_output: 512
    pad: 1
    kernel_size: 3
  }
}
layer {
  name: "relu5_1"
  type: "ReLU"
  bottom: "conv5_1"
  top: "conv5_1"
}
layer {
  name: "conv5_2"
  type: "Convolution"
  bottom: "conv5_1"
  top: "conv5_2"
  param {
    lr_mult: 1
  }
  param {
    lr_mult: 2
  }
  convolution_param {
    num_output: 512
    pad: 1
    kernel_size: 3
  }
}
layer {
  name: "relu5_2"
  type: "ReLU"
  bottom: "conv5_2"
  top: "conv5_2"
}
layer {
  name: "conv5_3"
  type: "Convolution"
  bottom: "conv5_2"
  top: "conv5_3"
  param {
    lr_mult: 1
  }
  param {
    lr_mult: 2
  }
  convolution_param {
    num_output: 512
    pad: 1
    kernel_size: 3
  }
}
layer {
  name: "relu5_3"
  type: "ReLU"
  bottom: "conv5_3"
  top: "conv5_3"
}
layer {
  name: "conv_proposal1"
  type: "Convolution"
  bottom: "conv5_3"
  top: "conv_proposal1"
  param {
    lr_mult: 1
  }
  param {
    lr_mult: 2
  }
  convolution_param {
    num_output: 512
    pad: 1
    kernel_size: 3
    stride: 1
    weight_filler {
      type: "gaussian"
      std: 0.01
    }
    bias_filler {
      type: "constant"
      value: 0
    }
  }
}
layer {
  name: "relu_proposal1"
  type: "ReLU"
  bottom: "conv_proposal1"
  top: "conv_proposal1"
}
layer {
  name: "proposal_cls_score"
  type: "Convolution"
  bottom: "conv_proposal1"
  top: "proposal_cls_score"
  param {
    lr_mult: 1
  }
  param {
    lr_mult: 2
  }
  convolution_param {
    num_output: 18
    pad: 0
    kernel_size: 1
    stride: 1
    weight_filler {
      type: "gaussian"
      std: 0.01
    }
    bias_filler {
      type: "constant"
      value: 0
    }
  }
}
layer {
  name: "proposal_bbox_pred"
  type: "Convolution"
  bottom: "conv_proposal1"
  top: "proposal_bbox_pred"
  param {
    lr_mult: 1
  }
  param {
    lr_mult: 2
  }
  convolution_param {
    num_output: 36
    pad: 0
    kernel_size: 1
    stride: 1
    weight_filler {
      type: "gaussian"
      std: 0.01
    }
    bias_filler {
      type: "constant"
      value: 0
    }
  }
}
layer {
  name: "proposal_cls_score_reshape"
  type: "Reshape"
  bottom: "proposal_cls_score"
  top: "proposal_cls_score_reshape"
  reshape_param {
    shape {
      dim: 0
      dim: 2
      dim: -1
      dim: 0
    }
  }
}
layer {
  name: "labels_reshape"
  type: "Reshape"
  bottom: "labels"
  top: "labels_reshape"
  reshape_param {
    shape {
      dim: 0
      dim: 1
      dim: -1
      dim: 0
    }
  }
}
layer {
  name: "labels_weights_reshape"
  type: "Reshape"
  bottom: "labels_weights"
  top: "labels_weights_reshape"
  reshape_param {
    shape {
      dim: 0
      dim: 1
      dim: -1
      dim: 0
    }
  }
}
layer {
  name: "loss"
  type: "SoftmaxWithLoss"
  bottom: "proposal_cls_score_reshape"
  bottom: "labels_reshape"
  bottom: "labels_weights_reshape"
  top: "loss_cls"
  loss_weight: 1
}
layer {
  name: "accuarcy"
  type: "Accuracy"
  bottom: "proposal_cls_score_reshape"
  bottom: "labels_reshape"
  top: "accuarcy"
}
layer {
  name: "loss_bbox"
  type: "SmoothL1Loss"
  bottom: "proposal_bbox_pred"
  bottom: "bbox_targets"
  bottom: "bbox_loss_weights"
  top: "loss_bbox"
  loss_weight: 5
}
I0826 11:57:19.809823 62202 net.cpp:380] Input 0 -> data
I0826 11:57:19.809834 62202 net.cpp:380] Input 1 -> labels
I0826 11:57:19.809839 62202 net.cpp:380] Input 2 -> labels_weights
I0826 11:57:19.809856 62202 net.cpp:380] Input 3 -> bbox_targets
I0826 11:57:19.809860 62202 net.cpp:380] Input 4 -> bbox_loss_weights
I0826 11:57:19.809900 62202 layer_factory.hpp:74] Creating layer conv1_1
I0826 11:57:19.809921 62202 net.cpp:90] Creating Layer conv1_1
I0826 11:57:19.809924 62202 net.cpp:420] conv1_1 <- data
I0826 11:57:19.809931 62202 net.cpp:378] conv1_1 -> conv1_1
I0826 11:57:19.809938 62202 net.cpp:120] Setting up conv1_1
I0826 11:57:19.810039 62202 net.cpp:127] Top shape: 1 64 224 224 (3211264)
I0826 11:57:19.810057 62202 layer_factory.hpp:74] Creating layer relu1_1
I0826 11:57:19.810063 62202 net.cpp:90] Creating Layer relu1_1
I0826 11:57:19.810066 62202 net.cpp:420] relu1_1 <- conv1_1
I0826 11:57:19.810071 62202 net.cpp:367] relu1_1 -> conv1_1 (in-place)
I0826 11:57:19.810075 62202 net.cpp:120] Setting up relu1_1
I0826 11:57:19.810080 62202 net.cpp:127] Top shape: 1 64 224 224 (3211264)
I0826 11:57:19.810082 62202 layer_factory.hpp:74] Creating layer conv1_2
I0826 11:57:19.810087 62202 net.cpp:90] Creating Layer conv1_2
I0826 11:57:19.810089 62202 net.cpp:420] conv1_2 <- conv1_1
I0826 11:57:19.810094 62202 net.cpp:378] conv1_2 -> conv1_2
I0826 11:57:19.810099 62202 net.cpp:120] Setting up conv1_2
I0826 11:57:19.810184 62202 net.cpp:127] Top shape: 1 64 224 224 (3211264)
I0826 11:57:19.810189 62202 layer_factory.hpp:74] Creating layer relu1_2
I0826 11:57:19.810194 62202 net.cpp:90] Creating Layer relu1_2
I0826 11:57:19.810197 62202 net.cpp:420] relu1_2 <- conv1_2
I0826 11:57:19.810201 62202 net.cpp:367] relu1_2 -> conv1_2 (in-place)
I0826 11:57:19.810205 62202 net.cpp:120] Setting up relu1_2
I0826 11:57:19.810209 62202 net.cpp:127] Top shape: 1 64 224 224 (3211264)
I0826 11:57:19.810211 62202 layer_factory.hpp:74] Creating layer pool1
I0826 11:57:19.810217 62202 net.cpp:90] Creating Layer pool1
I0826 11:57:19.810220 62202 net.cpp:420] pool1 <- conv1_2
I0826 11:57:19.810225 62202 net.cpp:378] pool1 -> pool1
I0826 11:57:19.810228 62202 net.cpp:120] Setting up pool1
I0826 11:57:19.810235 62202 net.cpp:127] Top shape: 1 64 112 112 (802816)
I0826 11:57:19.810237 62202 layer_factory.hpp:74] Creating layer conv2_1
I0826 11:57:19.810242 62202 net.cpp:90] Creating Layer conv2_1
I0826 11:57:19.810245 62202 net.cpp:420] conv2_1 <- pool1
I0826 11:57:19.810250 62202 net.cpp:378] conv2_1 -> conv2_1
I0826 11:57:19.810256 62202 net.cpp:120] Setting up conv2_1
I0826 11:57:19.810333 62202 net.cpp:127] Top shape: 1 128 112 112 (1605632)
I0826 11:57:19.810339 62202 layer_factory.hpp:74] Creating layer relu2_1
I0826 11:57:19.810344 62202 net.cpp:90] Creating Layer relu2_1
I0826 11:57:19.810348 62202 net.cpp:420] relu2_1 <- conv2_1
I0826 11:57:19.810351 62202 net.cpp:367] relu2_1 -> conv2_1 (in-place)
I0826 11:57:19.810355 62202 net.cpp:120] Setting up relu2_1
I0826 11:57:19.810359 62202 net.cpp:127] Top shape: 1 128 112 112 (1605632)
I0826 11:57:19.810361 62202 layer_factory.hpp:74] Creating layer conv2_2
I0826 11:57:19.810367 62202 net.cpp:90] Creating Layer conv2_2
I0826 11:57:19.810369 62202 net.cpp:420] conv2_2 <- conv2_1
I0826 11:57:19.810374 62202 net.cpp:378] conv2_2 -> conv2_2
I0826 11:57:19.810379 62202 net.cpp:120] Setting up conv2_2
I0826 11:57:19.810514 62202 net.cpp:127] Top shape: 1 128 112 112 (1605632)
I0826 11:57:19.810519 62202 layer_factory.hpp:74] Creating layer relu2_2
I0826 11:57:19.810524 62202 net.cpp:90] Creating Layer relu2_2
I0826 11:57:19.810528 62202 net.cpp:420] relu2_2 <- conv2_2
I0826 11:57:19.810531 62202 net.cpp:367] relu2_2 -> conv2_2 (in-place)
I0826 11:57:19.810535 62202 net.cpp:120] Setting up relu2_2
I0826 11:57:19.810539 62202 net.cpp:127] Top shape: 1 128 112 112 (1605632)
I0826 11:57:19.810541 62202 layer_factory.hpp:74] Creating layer pool2
I0826 11:57:19.810546 62202 net.cpp:90] Creating Layer pool2
I0826 11:57:19.810549 62202 net.cpp:420] pool2 <- conv2_2
I0826 11:57:19.810554 62202 net.cpp:378] pool2 -> pool2
I0826 11:57:19.810557 62202 net.cpp:120] Setting up pool2
I0826 11:57:19.810564 62202 net.cpp:127] Top shape: 1 128 56 56 (401408)
I0826 11:57:19.810565 62202 layer_factory.hpp:74] Creating layer conv3_1
I0826 11:57:19.810570 62202 net.cpp:90] Creating Layer conv3_1
I0826 11:57:19.810573 62202 net.cpp:420] conv3_1 <- pool2
I0826 11:57:19.810578 62202 net.cpp:378] conv3_1 -> conv3_1
I0826 11:57:19.810582 62202 net.cpp:120] Setting up conv3_1
I0826 11:57:19.810824 62202 net.cpp:127] Top shape: 1 256 56 56 (802816)
I0826 11:57:19.810832 62202 layer_factory.hpp:74] Creating layer relu3_1
I0826 11:57:19.810837 62202 net.cpp:90] Creating Layer relu3_1
I0826 11:57:19.810847 62202 net.cpp:420] relu3_1 <- conv3_1
I0826 11:57:19.810852 62202 net.cpp:367] relu3_1 -> conv3_1 (in-place)
I0826 11:57:19.810855 62202 net.cpp:120] Setting up relu3_1
I0826 11:57:19.810859 62202 net.cpp:127] Top shape: 1 256 56 56 (802816)
I0826 11:57:19.810861 62202 layer_factory.hpp:74] Creating layer conv3_2
I0826 11:57:19.810866 62202 net.cpp:90] Creating Layer conv3_2
I0826 11:57:19.810869 62202 net.cpp:420] conv3_2 <- conv3_1
I0826 11:57:19.810874 62202 net.cpp:378] conv3_2 -> conv3_2
I0826 11:57:19.810878 62202 net.cpp:120] Setting up conv3_2
I0826 11:57:19.811345 62202 net.cpp:127] Top shape: 1 256 56 56 (802816)
I0826 11:57:19.811352 62202 layer_factory.hpp:74] Creating layer relu3_2
I0826 11:57:19.811355 62202 net.cpp:90] Creating Layer relu3_2
I0826 11:57:19.811358 62202 net.cpp:420] relu3_2 <- conv3_2
I0826 11:57:19.811362 62202 net.cpp:367] relu3_2 -> conv3_2 (in-place)
I0826 11:57:19.811367 62202 net.cpp:120] Setting up relu3_2
I0826 11:57:19.811370 62202 net.cpp:127] Top shape: 1 256 56 56 (802816)
I0826 11:57:19.811373 62202 layer_factory.hpp:74] Creating layer conv3_3
I0826 11:57:19.811378 62202 net.cpp:90] Creating Layer conv3_3
I0826 11:57:19.811380 62202 net.cpp:420] conv3_3 <- conv3_2
I0826 11:57:19.811385 62202 net.cpp:378] conv3_3 -> conv3_3
I0826 11:57:19.811390 62202 net.cpp:120] Setting up conv3_3
I0826 11:57:19.811858 62202 net.cpp:127] Top shape: 1 256 56 56 (802816)
I0826 11:57:19.811864 62202 layer_factory.hpp:74] Creating layer relu3_3
I0826 11:57:19.811868 62202 net.cpp:90] Creating Layer relu3_3
I0826 11:57:19.811872 62202 net.cpp:420] relu3_3 <- conv3_3
I0826 11:57:19.811877 62202 net.cpp:367] relu3_3 -> conv3_3 (in-place)
I0826 11:57:19.811880 62202 net.cpp:120] Setting up relu3_3
I0826 11:57:19.811883 62202 net.cpp:127] Top shape: 1 256 56 56 (802816)
I0826 11:57:19.811887 62202 layer_factory.hpp:74] Creating layer pool3
I0826 11:57:19.811892 62202 net.cpp:90] Creating Layer pool3
I0826 11:57:19.811895 62202 net.cpp:420] pool3 <- conv3_3
I0826 11:57:19.811900 62202 net.cpp:378] pool3 -> pool3
I0826 11:57:19.811904 62202 net.cpp:120] Setting up pool3
I0826 11:57:19.811909 62202 net.cpp:127] Top shape: 1 256 28 28 (200704)
I0826 11:57:19.811913 62202 layer_factory.hpp:74] Creating layer conv4_1
I0826 11:57:19.811918 62202 net.cpp:90] Creating Layer conv4_1
I0826 11:57:19.811920 62202 net.cpp:420] conv4_1 <- pool3
I0826 11:57:19.811925 62202 net.cpp:378] conv4_1 -> conv4_1
I0826 11:57:19.811929 62202 net.cpp:120] Setting up conv4_1
I0826 11:57:19.813772 62202 net.cpp:127] Top shape: 1 512 28 28 (401408)
I0826 11:57:19.813781 62202 layer_factory.hpp:74] Creating layer relu4_1
I0826 11:57:19.813786 62202 net.cpp:90] Creating Layer relu4_1
I0826 11:57:19.813788 62202 net.cpp:420] relu4_1 <- conv4_1
I0826 11:57:19.813793 62202 net.cpp:367] relu4_1 -> conv4_1 (in-place)
I0826 11:57:19.813797 62202 net.cpp:120] Setting up relu4_1
I0826 11:57:19.813802 62202 net.cpp:127] Top shape: 1 512 28 28 (401408)
I0826 11:57:19.813804 62202 layer_factory.hpp:74] Creating layer conv4_2
I0826 11:57:19.813809 62202 net.cpp:90] Creating Layer conv4_2
I0826 11:57:19.813812 62202 net.cpp:420] conv4_2 <- conv4_1
I0826 11:57:19.813818 62202 net.cpp:378] conv4_2 -> conv4_2
I0826 11:57:19.813824 62202 net.cpp:120] Setting up conv4_2
I0826 11:57:19.816840 62202 net.cpp:127] Top shape: 1 512 28 28 (401408)
I0826 11:57:19.816851 62202 layer_factory.hpp:74] Creating layer relu4_2
I0826 11:57:19.816857 62202 net.cpp:90] Creating Layer relu4_2
I0826 11:57:19.816860 62202 net.cpp:420] relu4_2 <- conv4_2
I0826 11:57:19.816864 62202 net.cpp:367] relu4_2 -> conv4_2 (in-place)
I0826 11:57:19.816869 62202 net.cpp:120] Setting up relu4_2
I0826 11:57:19.816872 62202 net.cpp:127] Top shape: 1 512 28 28 (401408)
I0826 11:57:19.816875 62202 layer_factory.hpp:74] Creating layer conv4_3
I0826 11:57:19.816882 62202 net.cpp:90] Creating Layer conv4_3
I0826 11:57:19.816885 62202 net.cpp:420] conv4_3 <- conv4_2
I0826 11:57:19.816891 62202 net.cpp:378] conv4_3 -> conv4_3
I0826 11:57:19.816896 62202 net.cpp:120] Setting up conv4_3
I0826 11:57:19.820251 62202 net.cpp:127] Top shape: 1 512 28 28 (401408)
I0826 11:57:19.820261 62202 layer_factory.hpp:74] Creating layer relu4_3
I0826 11:57:19.820267 62202 net.cpp:90] Creating Layer relu4_3
I0826 11:57:19.820271 62202 net.cpp:420] relu4_3 <- conv4_3
I0826 11:57:19.820276 62202 net.cpp:367] relu4_3 -> conv4_3 (in-place)
I0826 11:57:19.820281 62202 net.cpp:120] Setting up relu4_3
I0826 11:57:19.820284 62202 net.cpp:127] Top shape: 1 512 28 28 (401408)
I0826 11:57:19.820287 62202 layer_factory.hpp:74] Creating layer pool4
I0826 11:57:19.820294 62202 net.cpp:90] Creating Layer pool4
I0826 11:57:19.820297 62202 net.cpp:420] pool4 <- conv4_3
I0826 11:57:19.820303 62202 net.cpp:378] pool4 -> pool4
I0826 11:57:19.820308 62202 net.cpp:120] Setting up pool4
I0826 11:57:19.820314 62202 net.cpp:127] Top shape: 1 512 14 14 (100352)
I0826 11:57:19.820317 62202 layer_factory.hpp:74] Creating layer conv5_1
I0826 11:57:19.820325 62202 net.cpp:90] Creating Layer conv5_1
I0826 11:57:19.820327 62202 net.cpp:420] conv5_1 <- pool4
I0826 11:57:19.820333 62202 net.cpp:378] conv5_1 -> conv5_1
I0826 11:57:19.820339 62202 net.cpp:120] Setting up conv5_1
I0826 11:57:19.823531 62202 net.cpp:127] Top shape: 1 512 14 14 (100352)
I0826 11:57:19.823539 62202 layer_factory.hpp:74] Creating layer relu5_1
I0826 11:57:19.823545 62202 net.cpp:90] Creating Layer relu5_1
I0826 11:57:19.823549 62202 net.cpp:420] relu5_1 <- conv5_1
I0826 11:57:19.823554 62202 net.cpp:367] relu5_1 -> conv5_1 (in-place)
I0826 11:57:19.823559 62202 net.cpp:120] Setting up relu5_1
I0826 11:57:19.823564 62202 net.cpp:127] Top shape: 1 512 14 14 (100352)
I0826 11:57:19.823565 62202 layer_factory.hpp:74] Creating layer conv5_2
I0826 11:57:19.823573 62202 net.cpp:90] Creating Layer conv5_2
I0826 11:57:19.823576 62202 net.cpp:420] conv5_2 <- conv5_1
I0826 11:57:19.823582 62202 net.cpp:378] conv5_2 -> conv5_2
I0826 11:57:19.823587 62202 net.cpp:120] Setting up conv5_2
I0826 11:57:19.826649 62202 net.cpp:127] Top shape: 1 512 14 14 (100352)
I0826 11:57:19.826659 62202 layer_factory.hpp:74] Creating layer relu5_2
I0826 11:57:19.826666 62202 net.cpp:90] Creating Layer relu5_2
I0826 11:57:19.826669 62202 net.cpp:420] relu5_2 <- conv5_2
I0826 11:57:19.826674 62202 net.cpp:367] relu5_2 -> conv5_2 (in-place)
I0826 11:57:19.826679 62202 net.cpp:120] Setting up relu5_2
I0826 11:57:19.826683 62202 net.cpp:127] Top shape: 1 512 14 14 (100352)
I0826 11:57:19.826686 62202 layer_factory.hpp:74] Creating layer conv5_3
I0826 11:57:19.826694 62202 net.cpp:90] Creating Layer conv5_3
I0826 11:57:19.826696 62202 net.cpp:420] conv5_3 <- conv5_2
I0826 11:57:19.826702 62202 net.cpp:378] conv5_3 -> conv5_3
I0826 11:57:19.826707 62202 net.cpp:120] Setting up conv5_3
I0826 11:57:19.829733 62202 net.cpp:127] Top shape: 1 512 14 14 (100352)
I0826 11:57:19.829742 62202 layer_factory.hpp:74] Creating layer relu5_3
I0826 11:57:19.829748 62202 net.cpp:90] Creating Layer relu5_3
I0826 11:57:19.829752 62202 net.cpp:420] relu5_3 <- conv5_3
I0826 11:57:19.829757 62202 net.cpp:367] relu5_3 -> conv5_3 (in-place)
I0826 11:57:19.829761 62202 net.cpp:120] Setting up relu5_3
I0826 11:57:19.829766 62202 net.cpp:127] Top shape: 1 512 14 14 (100352)
I0826 11:57:19.829768 62202 layer_factory.hpp:74] Creating layer conv_proposal1
I0826 11:57:19.829777 62202 net.cpp:90] Creating Layer conv_proposal1
I0826 11:57:19.829780 62202 net.cpp:420] conv_proposal1 <- conv5_3
I0826 11:57:19.829787 62202 net.cpp:378] conv_proposal1 -> conv_proposal1
I0826 11:57:19.829793 62202 net.cpp:120] Setting up conv_proposal1
I0826 11:57:19.894623 62202 net.cpp:127] Top shape: 1 512 14 14 (100352)
I0826 11:57:19.894634 62202 layer_factory.hpp:74] Creating layer relu_proposal1
I0826 11:57:19.894640 62202 net.cpp:90] Creating Layer relu_proposal1
I0826 11:57:19.894644 62202 net.cpp:420] relu_proposal1 <- conv_proposal1
I0826 11:57:19.894650 62202 net.cpp:367] relu_proposal1 -> conv_proposal1 (in-place)
I0826 11:57:19.894654 62202 net.cpp:120] Setting up relu_proposal1
I0826 11:57:19.894659 62202 net.cpp:127] Top shape: 1 512 14 14 (100352)
I0826 11:57:19.894691 62202 layer_factory.hpp:74] Creating layer conv_proposal1_relu_proposal1_0_split
I0826 11:57:19.894706 62202 net.cpp:90] Creating Layer conv_proposal1_relu_proposal1_0_split
I0826 11:57:19.894709 62202 net.cpp:420] conv_proposal1_relu_proposal1_0_split <- conv_proposal1
I0826 11:57:19.894714 62202 net.cpp:378] conv_proposal1_relu_proposal1_0_split -> conv_proposal1_relu_proposal1_0_split_0
I0826 11:57:19.894721 62202 net.cpp:378] conv_proposal1_relu_proposal1_0_split -> conv_proposal1_relu_proposal1_0_split_1
I0826 11:57:19.894726 62202 net.cpp:120] Setting up conv_proposal1_relu_proposal1_0_split
I0826 11:57:19.894732 62202 net.cpp:127] Top shape: 1 512 14 14 (100352)
I0826 11:57:19.894737 62202 net.cpp:127] Top shape: 1 512 14 14 (100352)
I0826 11:57:19.894740 62202 layer_factory.hpp:74] Creating layer proposal_cls_score
I0826 11:57:19.894748 62202 net.cpp:90] Creating Layer proposal_cls_score
I0826 11:57:19.894752 62202 net.cpp:420] proposal_cls_score <- conv_proposal1_relu_proposal1_0_split_0
I0826 11:57:19.894759 62202 net.cpp:378] proposal_cls_score -> proposal_cls_score
I0826 11:57:19.894764 62202 net.cpp:120] Setting up proposal_cls_score
I0826 11:57:19.895023 62202 net.cpp:127] Top shape: 1 18 14 14 (3528)
I0826 11:57:19.895030 62202 layer_factory.hpp:74] Creating layer proposal_bbox_pred
I0826 11:57:19.895038 62202 net.cpp:90] Creating Layer proposal_bbox_pred
I0826 11:57:19.895041 62202 net.cpp:420] proposal_bbox_pred <- conv_proposal1_relu_proposal1_0_split_1
I0826 11:57:19.895048 62202 net.cpp:378] proposal_bbox_pred -> proposal_bbox_pred
I0826 11:57:19.895054 62202 net.cpp:120] Setting up proposal_bbox_pred
I0826 11:57:19.895560 62202 net.cpp:127] Top shape: 1 36 14 14 (7056)
I0826 11:57:19.895566 62202 layer_factory.hpp:74] Creating layer proposal_cls_score_reshape
I0826 11:57:19.895576 62202 net.cpp:90] Creating Layer proposal_cls_score_reshape
I0826 11:57:19.895578 62202 net.cpp:420] proposal_cls_score_reshape <- proposal_cls_score
I0826 11:57:19.895584 62202 net.cpp:378] proposal_cls_score_reshape -> proposal_cls_score_reshape
I0826 11:57:19.895591 62202 net.cpp:120] Setting up proposal_cls_score_reshape
I0826 11:57:19.895598 62202 net.cpp:127] Top shape: 1 2 126 14 (3528)
I0826 11:57:19.895601 62202 layer_factory.hpp:74] Creating layer proposal_cls_score_reshape_proposal_cls_score_reshape_0_split
I0826 11:57:19.895607 62202 net.cpp:90] Creating Layer proposal_cls_score_reshape_proposal_cls_score_reshape_0_split
I0826 11:57:19.895611 62202 net.cpp:420] proposal_cls_score_reshape_proposal_cls_score_reshape_0_split <- proposal_cls_score_reshape
I0826 11:57:19.895615 62202 net.cpp:378] proposal_cls_score_reshape_proposal_cls_score_reshape_0_split -> proposal_cls_score_reshape_proposal_cls_score_reshape_0_split_0
I0826 11:57:19.895622 62202 net.cpp:378] proposal_cls_score_reshape_proposal_cls_score_reshape_0_split -> proposal_cls_score_reshape_proposal_cls_score_reshape_0_split_1
I0826 11:57:19.895627 62202 net.cpp:120] Setting up proposal_cls_score_reshape_proposal_cls_score_reshape_0_split
I0826 11:57:19.895632 62202 net.cpp:127] Top shape: 1 2 126 14 (3528)
I0826 11:57:19.895635 62202 net.cpp:127] Top shape: 1 2 126 14 (3528)
I0826 11:57:19.895638 62202 layer_factory.hpp:74] Creating layer labels_reshape
I0826 11:57:19.895644 62202 net.cpp:90] Creating Layer labels_reshape
I0826 11:57:19.895648 62202 net.cpp:420] labels_reshape <- labels
I0826 11:57:19.895653 62202 net.cpp:378] labels_reshape -> labels_reshape
I0826 11:57:19.895659 62202 net.cpp:120] Setting up labels_reshape
I0826 11:57:19.895665 62202 net.cpp:127] Top shape: 1 1 126 14 (1764)
I0826 11:57:19.895668 62202 layer_factory.hpp:74] Creating layer labels_reshape_labels_reshape_0_split
I0826 11:57:19.895674 62202 net.cpp:90] Creating Layer labels_reshape_labels_reshape_0_split
I0826 11:57:19.895678 62202 net.cpp:420] labels_reshape_labels_reshape_0_split <- labels_reshape
I0826 11:57:19.895683 62202 net.cpp:378] labels_reshape_labels_reshape_0_split -> labels_reshape_labels_reshape_0_split_0
I0826 11:57:19.895689 62202 net.cpp:378] labels_reshape_labels_reshape_0_split -> labels_reshape_labels_reshape_0_split_1
I0826 11:57:19.895706 62202 net.cpp:120] Setting up labels_reshape_labels_reshape_0_split
I0826 11:57:19.895714 62202 net.cpp:127] Top shape: 1 1 126 14 (1764)
I0826 11:57:19.895716 62202 net.cpp:127] Top shape: 1 1 126 14 (1764)
I0826 11:57:19.895720 62202 layer_factory.hpp:74] Creating layer labels_weights_reshape
I0826 11:57:19.895726 62202 net.cpp:90] Creating Layer labels_weights_reshape
I0826 11:57:19.895730 62202 net.cpp:420] labels_weights_reshape <- labels_weights
I0826 11:57:19.895735 62202 net.cpp:378] labels_weights_reshape -> labels_weights_reshape
I0826 11:57:19.895740 62202 net.cpp:120] Setting up labels_weights_reshape
I0826 11:57:19.895746 62202 net.cpp:127] Top shape: 1 1 126 14 (1764)
I0826 11:57:19.895750 62202 layer_factory.hpp:74] Creating layer loss
I0826 11:57:19.895757 62202 net.cpp:90] Creating Layer loss
I0826 11:57:19.895761 62202 net.cpp:420] loss <- proposal_cls_score_reshape_proposal_cls_score_reshape_0_split_0
I0826 11:57:19.895764 62202 net.cpp:420] loss <- labels_reshape_labels_reshape_0_split_0
I0826 11:57:19.895768 62202 net.cpp:420] loss <- labels_weights_reshape
…
